EVC_model_slam_V3.pth (torch, 20007 bytes, 6 tensors)

l1.weight f4 [8, 319]
0.13098887 -0.52802825 0.07861883 0.6131969 -0.33894646 -0.018191138 -0.37799308 -0.89059347
-0.08970256 0.32467514 -0.2948246 0.27351972 0.07216888 -0.8521968 0.27064013 -0.04759919
0.42788026 -0.41392508 0.2437268 0.6398283 1.2653332 0.5255557 0.5652529 1.2307019
0.47539625 1.2893364 -0.29881746 -0.27053216 0.78870136 -0.28926626 -0.36037862 0.19129755
-0.061573427 0.19302717 0.72972715 0.9698658 -0.19505972 -0.22144452 -0.05723455 0.056629322
-0.16391745 -0.6122493 0.48237103 -0.75966704 0.5170451 0.35762882 -0.61545765 -0.27498624
0.70074594 -0.0007032917 0.7460154 0.82570815 0.26553437 0.14637624 0.11211086 0.8304207
-0.057353843 -0.16054015 -0.060359806 0.9680275 0.11229211 -0.65672743 0.4834633 -0.13685991
-0.41005617 0.7464698 -0.9026106 -0.45211342 0.66845757 -0.3845447 -0.8656117 0.2766588
-0.12464337 0.6989116 1.472171 0.71190995 -0.15369025 -0.42500418 -0.54957646 -0.14077221
-0.7117979 0.5789021 -0.32250515 -0.0756263 0.95663476 0.43699908 -0.38536984 -0.1828187
-0.38355836 -0.10191553 0.6284621 -0.12015134 -0.34808043 -0.4687967 0.7236113 -0.04758118
0.79099387 1.3662596 -0.4638644 1.2964841 0.63896364 -0.00078284345 0.32216376 -0.30751318
0.3894012 0.119965546 -0.34266555 -0.3627432 0.27537006 -0.22617996 -0.014610976 0.49585748
0.42765677 -0.6393097 -0.4817473 -0.1879362 1.1307893 0.17841242 -0.023256404 -0.22098857
-0.04781328 -0.327814 1.452944 0.18546401 0.56281865 0.17504103 0.1747433 0.04164977
-0.5846881 0.19657774 -0.3239003 0.1837991 0.2425071 0.0032539824 0.6948928 0.513443
0.16234791 -0.079735205 0.7092311 -0.1683701 0.39419457 -0.23659706 0.6023576 0.38395682
0.94566023 0.4921421 -1.2102079 0.49722666 0.78162706 0.054233648 -0.9636607 -0.27105632
0.8463407 -0.15873516 -0.60591537 0.1952492 -0.75099784 0.6388945 0.9969886 0.8141887
-0.04726948 -0.7462153 0.29581168 0.09013656 -0.5138307 1.0038201 0.50566095 -0.40599528
-0.51944697 0.6265466 -0.2264363 -0.31021726 0.47590196 0.5669589 0.262778 0.6458289
-0.69154835 0.13382237 1.3928711 1.5464131 0.13193913 0.12752596 0.8567204 0.81676483
0.18562686 0.8868847 0.5526051 0.11465177 -0.4335037 -0.53741664 -0.46018976 0.61441976
0.34043914 -0.15541984 0.76208216 -0.08197425 0.9892417 -0.15468433 0.3641661 0.84052
0.522388 -0.1989031 0.57168496 -1.0907542 -0.27808374 0.68645 0.19414508 1.0763232
-0.5371584 -0.5528574 -0.4893582 0.734283 -0.31990513 0.3496041 0.75236595 0.6841151
-0.5129762 0.6208289 0.99635935 0.5917385 -0.35687232 0.641626 -0.14559047 0.161529
1.4121395 -0.33717406 0.25108862 -0.61929005 -0.43230677 -0.0948377 0.030712215 -0.025944464
-0.1772816 -0.26291722 -0.61702585 -0.009086504 0.5953035 -0.79377246 -0.07616059 0.5579939
0.4081143 0.66693354 -0.26796836 -0.5282567 -0.0017802878 0.07994914 0.7175496 0.5415182
-0.06939783 -0.9963125 0.7599977 0.6467701 0.1138087 0.21542704 0.2582982 0.4214051
00000000: f221 063e dc2c 07bf e902 a13d 79fa 1c3f
00000010: 648a adbe 9505 95bc 4f88 c1be effd 63bf
00000020: fab5 b7bd d23b a63e 40f3 96be c70a 8c3e
00000030: 47cd 933d 9229 5abf 5891 8a3e 5ef7 42bd
00000040: 1f13 db3e fded d3be 8593 793e cacb 233f
00000050: 70f6 a13f d18a 063f 6ab4 103f a487 9d3f
00000060: 2367 f33e fa08 a53f 9afe 98be 3183 8abe
00000070: 55e8 493f b51a 94be 8c83 b8be 81e3 433e
00000080: 6b34 7cbd eaa8 453e 66cf 3a3f 2049 783f
00000090: bcbd 47be 5ac2 62be c76e 6abd 26f4 673d
000000a0: fad9 27be 5fbc 1cbf 56f9 f63e 8a79 42bf
000000b0: 115d 043f 201b b73e a28e 1dbf ffca 8cbe
000000c0: 1664 333f 1b5d 38ba defa 3e3f 9c61 533f
000000d0: 1ff4 873e a7e3 153e 619a e53d 7396 543f
000000e0: ddeb 6abd a364 24be d83b 77bd a6d0 773f
000000f0: 68f9 e53d 4a1f 28bf 8088 f73e 0125 0cbe
00000100: e2f2 d1be a518 3f3f 7d11 67bf 697b e7be
00000110: 0920 2b3f 0be3 c4be ba98 5dbf 39a6 8d3e
00000120: 0645 ffbd dfeb 323f 1970 bc3f bb3f 363f
00000130: fa60 1dbe 269a d9be 0bb1 0cbf 9726 10be
00000140: 6338 36bf ee32 143f 651f a5be f6e1 9abd
00000150: 04e6 743f 58be df3e 324f c5be d334 3bbe
00000160: c361 c4be 17b9 d0bd e4e2 203f e811 f6bd
00000170: 9937 b2be 1f06 f0be 973e 393f 7ce4 42bd
00000180: 937e 4a3f 98e1 ae3f a27f edbe 31f3 a53f
00000190: 1f93 233f bc37 4dba a6f2 a43e 5e72 9dbe
000001a0: 985f c73e 7fb0 f53d dc71 afbe 7ab9 b9be
000001b0: 4efd 8c3e b89b 67be e062 6fbc 08e1 fd3e
000001c0: d4f5 da3e cda9 23bf 95a7 f6be 5972 40be
000001d0: b4bd 903f bfb1 363e 3784 bebc d44a 62be
000001e0: dcd7 43bd 3dd7 a7be 12fa b93f 47ea 3d3e
000001f0: e214 103f f53d 333e e8ef 323e f398 2a3d
00000200: 1fae 15bf ad4b 493e 43d6 a5be d535 3c3e
00000210: c853 783e c440 553b 7fe4 313f 0071 033f
00000220: 883e 263e 364c a3bd 2b90 353f 3669 2cbe
00000230: dfd3 c93e 8046 72be 1c34 1a3f fd95 c43e
00000240: ca16 723f 0dfa fb3e 18e8 9abf 7e94 fe3e
00000250: b618 483f 1a24 5e3d 78b2 76bf e5c7 8abe
00000260: c9a9 583f 788b 22be 451d 1bbf 68ef 473e
00000270: 6541 40bf 978e 233f a53a 7f3f ac6e 503f
00000280: a49d 41bd f707 3fbf a174 973e 8499 b83d
00000290: 698a 03bf 2d7d 803f ff72 013f 9dde cfbe
000002a0: 7afa 04bf 5c65 203f ebde 67be ccd4 9ebe
000002b0: 6ca9 f33e 3824 113f d78a 863e 0b55 253f
000002c0: 5009 31bf bb08 093e 9a49 b23f ddf0 c53f
000002d0: 0d1b 073e 2a96 023e 0752 5b3f 8017 513f
000002e0: f814 3e3e e00a 633f 8777 0d3f 8cce ea3d
000002f0: 32f4 ddbe 2394 09bf fe9d ebbe 9d4a 1d3f
00000300: 0a4e ae3e 6126 1fbe d117 433f 1ee2 a7bd
00000310: f23e 7d3f 9265 1ebe fb73 ba3e 522c 573f
00000320: 38bb 053f 41ad 4bbe f259 123f d59d 8bbf
00000330: fe60 8ebe 30bb 2f3f f8cd 463e f5c4 893f
00000340: 3783 09bf 1088 0dbf 288d fabe f8f9 3b3f
00000350: 9bca a3be 4fff b23e 0e9b 403f 2b22 2f3f
00000360: 6952 03bf a5ee 1e3f 6811 7f3f 2d7c 173f
00000370: f8b7 b6be 9a41 243f ab15 15be dc67 253e
00000380: fdc0 b43f 14a2 acbe b08e 803e cb89 1ebf
00000390: 5057 ddbe 453a c2bd 2f98 fb3c 7c89 d4bc
000003a0: 4f89 35be 169d 86be 68f5 1dbf 8fdf 14bc
000003b0: cf65 183f ac34 4bbf 15fa 9bbd b0d8 0e3f
000003c0: 5cf4 d03e 28bc 2a3f 2633 89be d53b 07bf
000003d0: 8c58 e9ba 60bc a33d 55b1 373f f0a0 0a3f
000003e0: 7320 8ebd 560e 7fbf 368f 423f ba92 253f
000003f0: 8914 e93d e898 5c3e a93f 843e 69c2 d73e

l1.bias f4 [8]
0.6567896 0.9111921 0.7436613 0.9275648 0.44172516 0.7957782 0.918195 1.0282966
00000000: 5d23 283f e343 693f 9660 3e3f e374 6d3f
00000010: cd29 e23e 1fb8 4b3f d40e 6b3f 399f 833f

l2.weight f4 [8, 8]
1.185555 -1.3945014 1.5438206 0.6716023 0.65748155 -1.2027097 1.833945 0.30095413
-1.211706 -0.21693413 0.38519487 0.66764605 1.0000367 0.11934255 -0.68567044 2.0618618
2.5725162 0.61678696 1.5044496 -0.65732193 1.4990798 -0.37973955 0.44980592 -0.5404064
-0.59986216 -0.4124075 0.59722996 -0.025600256 2.7729213 -0.42497292 1.227114 -0.039003074
-0.09810715 1.2277557 1.4278246 1.8834398 1.0205773 0.8016079 -2.263865 -1.2713797
-1.6749198 2.4420924 -0.5510602 2.3608637 -0.5343668 -0.21838583 1.2613003 0.2361592
2.7788172 1.0242912 1.4395666 -1.0686625 -0.47632405 2.987876 1.1559392 2.3571732
1.4057064 1.8253196 -0.9611708 0.75618804 1.1838399 -1.4110789 1.0340612 -0.038163207
00000000: 44c0 973f 067f b2bf ea9b c53f 21ee 2b3f
00000010: b650 283f 64f2 99bf b6be ea3f a916 9a3e
00000020: 2f19 9bbf fb23 5ebe 4338 c53e daea 2a3f
00000030: 3401 803f de69 f43d 1988 2fbf 8bf5 0340
00000040: 1ba4 2440 c0e5 1d3f ce91 c03f 4046 28bf
00000050: d9e1 bf3f 396d c2be f64c e63e 1358 0abf
00000060: 9190 19bf 1327 d3be 10e4 183f a1b7 d1bc
00000070: 8b77 3140 0d96 d9be 1212 9d3f b0c1 1fbd
00000080: 67ec c8bd 1927 9d3f f5c2 b63f 8e14 f13f
00000090: 47a2 823f 2d36 4d3f 2ae3 10c0 92bc a2bf
000000a0: c663 d6bf 3e4b 1c40 4812 0dbf 6418 1740
000000b0: 43cc 08bf 89a0 5fbe 4a72 a13f b8d3 713e
000000c0: 24d8 3140 f91b 833f b843 b83f efc9 88bf
000000d0: bfe0 f3be 5c39 3f40 d1f5 933f eddb 1640
000000e0: 30ee b33f 13a4 e93f 4a0f 76bf 8a95 413f
000000f0: 1188 973f 3c9e b4bf 1e5c 843f 0651 1cbd

l2.bias f4 [8]
0.23140824 -0.4153139 -0.48837933 -0.1206859 0.93307 0.47838137 0.31958953 -0.4724832
00000000: 48f6 6c3e 06a4 d4be db0c fabe 2b2a f7bd
00000010: addd 6e3f 67ee f43e 3da1 a33e 51e9 f1be

l3.weight f4 [48, 8]
-1.1528286 0.30069983 -1.2870423 -0.13928403 0.48656982 0.21621898 0.021187391 -4.9897685
-3.1331394 -1.0629668 -0.083597586 0.14613613 -0.8749776 0.13332179 0.5532683 -0.32342237
-0.7019376 0.34033868 -3.4563377 -0.5699045 -0.45427063 0.42850444 -0.9106632 0.47657365
-3.875187 -0.98012143 -0.19388391 -3.1672926 0.07614922 0.3904349 0.17567417 0.049224984
0.67747754 -2.715941 -0.07689993 -0.07828497 0.20779254 -0.5134439 -0.31206903 -1.5727489
0.5063785 -0.7057612 -0.56584555 0.7733117 -0.60504675 0.21148506 -1.7361075 -0.49010533
0.49387255 -0.7294507 0.3795139 0.18992402 -2.4547536 -3.503767 0.16814914 -0.32033014
-0.5944989 -2.3002055 -0.022464681 -0.057630915 -0.5395884 -0.33875284 0.18299004 -0.0864499
0.6744664 -1.683603 -2.9152706 0.30858475 -1.1675826 0.6514394 -1.957546 0.34796977
-1.4192241 -0.34878927 -0.13441496 0.67260903 0.022903938 0.13337117 -3.0243394 0.52814287
-0.7876199 0.7221862 -4.710982 -1.2245647 -2.6195867 0.8991684 0.8521623 -4.002484
-0.89688164 -1.2752532 -1.8984189 -0.9582987 -2.306326 0.796191 0.24686873 0.92654246
-0.48691624 -1.4672953 0.48479226 0.16884935 0.38329837 -1.8653172 -0.9325234 0.22911313
-2.3821452 0.48104477 -3.485004 0.4503209 0.36518818 0.3241054 -0.5097951 -0.64103925
-0.17691727 -3.2951012 0.123973206 -0.18335629 -0.13628444 -0.8573305 0.60637265 -4.08023
-3.858594 -3.3933988 0.06555043 0.41828737 0.28794247 0.17649564 -0.32811213 0.39963815
-2.5274358 -1.7026246 -3.1152778 -1.3459027 1.106418 -1.4848504 1.213889 -0.9883441
0.24080594 -0.014293343 -0.12348898 -0.031323206 -0.2654501 -1.3239616 -0.6395009 -0.04408519
-3.4420161 0.21769267 0.37849742 -0.50347704 0.4559389 -1.8479125 0.6602201 -3.3412843
-0.26779142 -0.61695725 -0.14927736 0.46807262 -1.8924799 -0.38622138 0.53530544 -0.61437166
0.36836037 0.16054179 -1.3262912 0.33419827 -1.064046 0.20364211 0.036350843 -1.629459
-3.7000499 0.43686253 -3.0300212 -2.0718343 0.22789423 0.20580296 0.46334034 -0.47314474
-1.5170114 0.7797645 -0.83238024 0.33093113 -0.18510772 -0.5011215 -0.116627485 -0.47058037
-0.33827415 -2.9904296 -1.96435 -0.049309976 0.6089983 0.48548546 0.15531202 -1.029088
-4.150744 0.1257955 -3.2432601 -0.15503886 -1.6051756 0.6396533 0.5620767 -0.021244356
-0.22876658 0.1779642 -0.076018475 0.40697312 0.56707275 -0.7638483 -2.6729658 -0.47388116
-1.0979117 -1.7961191 -1.1801229 -0.5757052 0.17044614 0.7826751 -1.5879841 0.5980158
0.21672256 0.45090947 -0.09780703 0.75799567 -1.5917441 -3.4043298 0.14782782 -3.1964757
-1.3011456 -0.3552761 0.16148953 0.5937836 0.29092798 -1.4925958 0.13542219 -1.2108731
0.32585865 -2.3309233 0.4646278 0.33846018 -1.4156708 -1.9113208 -0.23622285 0.43191317
-0.5363308 1.0634906 -0.21393532 -0.7577525 -0.25203982 -1.664484 0.4608752 -3.9339871
-0.9840889 -1.1935418 0.18988308 0.15785867 0.23506956 0.029887795 -1.1385468 -0.05371926
00000000: e38f 93bf 54f5 993e cdbd a4bf 79a0 0ebe
00000010: ae1f f93e 8268 5d3e 2e91 ad3c 2fac 9fc0
00000020: 5b85 48c0 4c0f 88bf 3635 abbd b6a4 153e
00000030: 88fe 5fbf 8285 083e fea2 0d3f 9e97 a5be
00000040: 2fb2 33bf df40 ae3e a334 5dc0 43e5 11bf
00000050: 2996 e8be ef64 db3e 3921 69bf 7601 f43e
00000060: 1003 78c0 3de9 7abf 8189 46be ecb4 4ac0
00000070: 1ff4 9b3d 15e7 c73e eee3 333e 23a0 493d
00000080: 2b6f 2d3f fad1 2dc0 b67d 9dbd df53 a0bd
00000090: 91c7 543e 0f71 03bf 83c7 9fbe d64f c9bf
000000a0: 05a2 013f c4ac 34bf 41db 10bf c1f7 453f
000000b0: 58e4 1abf 8a8f 583e c538 debf 16ef fabe
000000c0: dddc fc3e 48bd 3abf a54f c23e 717b 423e
000000d0: af1a 1dc0 b83d 60c0 4a2f 2c3e 5002 a4be
000000e0: 1431 18bf 9136 13c0 da07 b8bc 650e 6cbd
000000f0: 7722 0abf 0371 adbe be61 3b3e a50c b1bd
00000100: d4a9 2c3f 4e80 d7bf cb93 3ac0 d2fe 9d3e
00000110: 5973 95bf bcc4 263f de90 fabf 1829 b23e
00000120: 23a9 b5bf 8294 b2be 13a4 09be 1b30 2c3f
00000130: 0aa1 bb3c 7492 083e c78e 41c0 5f34 073f
00000140: 75a1 49bf 32e1 383f 5dc0 96c0 89be 9cbf
00000150: 4fa7 27c0 e62f 663f 4f27 5a3f 5914 80c0
00000160: 099a 65bf 7f3b a3bf 64ff f2bf 1053 75bf
00000170: d89a 13c0 2cd3 4b3f 28cb 7c3e e331 6d3f
00000180: 164d f9be 55d0 bbbf b136 f83e d8e6 2c3e
00000190: af3f c43e b7c2 eebf dbb9 6ebf a29c 6a3e
000001a0: 1175 18c0 804b f63e 4e0a 5fc0 7690 e63e
000001b0: f2f9 ba3e 25f1 a53e ef81 02bf 261b 24bf
000001c0: cd29 35be f0e2 52c0 aae5 fd3d c0c1 3bbe
000001d0: 268e 0bbe 037a 5bbf 3d3b 1b3f 3f91 82c0
000001e0: 34f3 76c0 722d 59c0 4e3f 863d c329 d63e
000001f0: 326d 933e 46bb 343e 50fe a7be 5f9d cc3e
00000200: 82c1 21c0 9aef d9bf b660 47c0 8a46 acbf
00000210: 1b9f 8d3f 940f bebf b760 9b3f 1e04 7dbf
00000220: d595 763e a02e 6abc cae7 fcbd c34c 00bd
00000230: 13e9 87be 9377 a9bf 55b6 23bf ac92 34bd
00000240: fe49 5cc0 d4ea 5e3e 6aca c13e dfe3 00bf
00000250: d370 e93e 6688 ecbf 2f04 293f 9ad7 55c0
00000260: f51b 89be e9f0 1dbf 2adc 18be 37a7 ef3e
00000270: c83c f2bf cfbe c5be c709 093f 7647 1dbf
00000280: bb99 bc3e 1165 243e e9c3 a9bf 091c ab3e
00000290: a932 88bf 8f87 503e 9fe4 143d 1d92 d0bf
000002a0: 9ecd 6cc0 72ac df3e deeb 41c0 ef98 04c0
000002b0: 1b5d 693e 03be 523e f23a ed3e 0740 f2be
000002c0: 6e2d c2bf a59e 473f df16 55bf ce6f a93e
000002d0: e18c 3dbe 8049 00bf 64da eebd e9ef f0be
000002e0: 4532 adbe 3363 3fc0 d26f fbbf 42f9 49bd
000002f0: 50e7 1b3f 8d91 f83e 1d0a 1f3e 28b9 83bf
00000300: e5d2 84c0 89d0 003e 9391 4fc0 82c2 1ebe
00000310: 6576 cdbf 52c0 233f 42e4 0f3f a508 aebc
00000320: c941 6abe 3f3c 363e 93af 9bbd c85e d03e
00000330: ae2b 113f 908b 43bf df11 2bc0 8da0 f2be
00000340: 5f88 8cbf 3be7 e5bf 440e 97bf 6a61 13bf
00000350: 6f89 2e3e 655d 483f 1043 cbbf 9017 193f
00000360: 85ec 5d3e 9bdd e63e 0d4f c8bd 010c 423f
00000370: 45be cbbf 8ae0 59c0 2d60 173e 0f93 4cc0
00000380: f08b a6bf c0e6 b5be 835d 253e 3402 183f
00000390: 83f4 943e 610d bfbf 1dac 0a3e e4fd 9abf
000003a0: f2d6 a63e d92d 15c0 b2e3 ed3e a74a ad3e
000003b0: b334 b5bf 29a6 f4bf 67e4 71be b923 dd3e
000003c0: fa4c 09bf 7620 883f dc11 5bbe 11fc 41bf
000003d0: 5d0b 81be d00d d5bf d6f7 eb3e 72c6 7bc0
000003e0: 40ed 7bbf fac5 98bf b670 423e b4a5 213e
000003f0: 13b6 703e 40d7 f43c e7bb 91bf ba08 5cbd

l3.bias f4 [48]
0.34195334 -0.05935559 -0.44925624 0.18919711 0.39289412 -0.18431881 -0.25273287 -0.84258395
-0.2288351 -0.14769538 0.2645426 0.22695473 -0.18483467 0.24355687 -0.051852886 0.34083447
0.72826624 -0.5909484 -0.11623341 0.25748158 0.2686236 -0.6331486 -0.44883743 0.617574
-0.0859642 -0.44479293 -0.23582694 -0.26437658 -0.43763342 0.019879024 0.074080616 -0.5398362
-0.5117268 -0.5580008 0.2754683 -0.06022698 0.47184926 0.033332225 0.31363618 0.29855055
-0.8589668 -0.05353863 0.38844967 -0.27891442 0.3890485 -0.20106542 0.18370639 0.62654513
00000000: 8214 af3e d91e 73bd ea04 e6be e3bc 413e
00000010: 6b29 c93e 12be 3cbe 3466 81be 95b3 57bf
00000020: c053 6abe 753d 17be 2172 873e d266 683e
00000030: 4d45 3dbe f966 793e b163 54bd db81 ae3e
00000040: a86f 3a3f 6548 17bf c80b eebd a0d4 833e
00000050: 0889 893e 0716 22bf 05ce e5be 5419 1e3f
00000060: 000e b0bd e6bb e3be 9e7c 71be 5e5c 87be
00000070: 7d11 e0be 56d9 a23c 94b7 973d b532 0abf
00000080: 8700 03bf 24d9 0ebf 2e0a 8d3e 91b0 76bd
00000090: 3a96 f13e 5f87 083d ec94 a03e 9edb 983e
000000a0: 40e5 5bbf 534b 5bbd e0e2 c63e dfcd 8ebe
000000b0: 5d31 c73e 18e4 4dbe 871d 3c3e 4365 203f
