EVC_model_slam_V2.pth (torch, 5735 bytes, 6 tensors)

l1.weight f4 [8, 64]
-0.21234599 -0.084362805 0.27339602 0.025710193 0.21731214 -0.14258839 0.22791862 0.2008252
0.5752322 0.258179 0.2222607 -0.17520986 -0.17438293 0.7582543 0.28166166 0.2952203
0.12527521 0.89228576 0.48459452 0.20812643 0.30275828 -0.25120774 -0.16826995 0.23194113
0.44555378 0.58858943 0.10912794 -0.21971805 0.7156846 -0.47087377 -0.08598109 -0.47066566
-0.47044778 -0.08977658 0.2613899 0.09627199 0.41177338 -0.032462973 0.24562103 0.1875954
0.081951454 0.20371453 0.59524214 0.21463618 0.29726204 -0.21981686 0.31545007 0.20119375
0.30766407 0.49001393 0.5198752 0.26316592 -0.6338461 -0.12484647 0.5898114 -0.38708234
0.30219454 0.20983632 0.5070576 0.11937547 0.17794274 0.7510254 0.15055926 0.0013347485
0.384333 0.13585748 0.12942846 -0.53631586 -0.27748293 0.3435028 -0.2825992 -0.1699956
-0.5249607 -0.51940167 -0.023393078 0.37557974 0.37035513 0.98081625 -0.60603577 -0.15285927
-0.03517446 0.7510012 -0.5051104 -0.67472297 -0.12895174 0.21429445 0.28403366 -0.26296455
-0.74708176 -0.12668908 -0.013685348 0.44799364 0.7486683 0.40774563 0.33734676 0.40269133
0.45680735 0.681978 -0.3214299 -0.064460576 0.32180828 0.2494079 -0.056380987 -0.4892405
-0.0064901593 -0.29092956 0.9800669 -0.25932503 -0.5156416 0.16814035 -0.06287678 -0.08628531
-0.7077326 0.3760159 -0.7213052 -0.48785302 0.6627604 0.17495988 -0.20976856 0.46236953
-0.64403945 -0.13915856 -0.60642093 -0.03423431 -0.29900506 0.88704634 -0.23913586 -0.27606848
-0.19864553 -0.14766926 0.52446485 0.33168203 0.4711877 -0.14345643 0.43097916 0.16526043
0.3768969 0.7596446 0.046042796 -0.2703306 -0.2716519 0.625602 0.16212565 0.64938885
0.12468967 0.56896126 0.67539936 0.4665376 0.6819347 -0.28428227 -0.33881992 0.1939694
0.4337235 0.92367595 0.13595845 -0.15960175 0.6651529 -0.4438571 -0.1061761 -0.44390538
-0.4436749 -0.34803542 0.63202035 0.29580858 0.2145554 -0.14358118 0.16678803 0.4548542
0.038902696 0.49575865 0.6943265 0.46383086 0.65644634 -0.12926811 0.68399125 0.06774448
0.122563325 0.061352357 0.90960497 0.41854936 -0.6439903 -0.03214495 0.90599954 -0.4553648
0.18990898 0.31597647 0.31745604 0.31121257 0.37602478 0.5980867 0.3292208 0.34624526
-0.13085763 0.21372962 0.22168194 0.22238754 0.005822999 0.2798807 0.009184781 -0.1626307
-0.33606416 0.13036239 -0.12941422 0.3539205 0.49938223 0.8822334 -0.34675428 0.4103661
-0.11067885 -0.72197264 0.8092386 0.24866745 0.291962 0.4590753 0.32261872 -0.15878107
0.27603078 0.5187833 -0.02435197 0.68105143 -0.72210616 0.89251494 -0.25505143 0.89094704
0.9206606 0.7757443 0.04923058 0.23687167 -0.53941476 0.059123628 -0.13033785 0.30611774
-0.15883824 -0.020958921 -0.27140078 -0.14905134 0.25045484 0.32688963 0.46013284 -0.11515641
-0.35763818 -0.60438985 0.49150443 0.2690188 -0.6409258 -0.33507982 0.5465404 0.6511638
-0.28682417 -0.08548868 -0.2703056 0.03395732 -0.4559181 0.51809525 0.4023829 0.06938318
00000000: 3a71 59be 68c6 acbd 90fa 8b3e 2f9e d23c
00000010: 1387 5e3e b102 12be 8063 693e 1fa5 4d3e
00000020: 6b42 133f 0a30 843e 4f98 633e 376a 33be
00000030: 7091 32be f41c 423f f535 903e 1d27 973e
00000040: 2548 003e d76c 643f c61c f83e 181f 553e
00000050: 2203 9b3e 4d9e 80be f54e 2cbe fa81 6d3e
00000060: a01f e43e ccad 163f 787e df3d c5fd 60be
00000070: 1b37 373f 5e16 f1be db16 b0bd 17fb f0be
00000080: 88de f0be c9dc b7bd e6d4 853e 402a c53d
00000090: f6d3 d23e e5f7 04bd 1484 7b3e 0219 403e
000000a0: 2ad6 a73d 8b9a 503e ca61 183f 96c9 5b3e
000000b0: bb32 983e ac17 61be ac82 a13e bc05 4e3e
000000c0: 2586 9d3e 1be3 fa3e 8b16 053f afbd 863e
000000d0: bd43 22bf 82af ffbd e1fd 163f a82f c6be
000000e0: 3eb9 9a3e 55df 563e 87ce 013f 207b f43d
000000f0: 9f36 363e 3343 403f 352c 1a3e baf2 ae3a
00000100: 4cc7 c43e 391e 0b3e e588 043e ff4b 09bf
00000110: 3e12 8ebe 99df af3e d8b0 90be 5413 2ebe
00000120: d363 06bf 82f7 04bf d7a2 bfbc fd4b c03e
00000130: 309f bd3e c616 7b3f 2925 1bbf 2487 1cbe
00000140: 1813 10bd 9d41 403f ea4e 01bf a5ba 2cbf
00000150: ed0b 04be 0170 5b3e dc6c 913e 4aa3 86be
00000160: c040 3fbf c8ba 01be 8338 60bc 6c5f e53e
00000170: baa8 3f3f 09c4 d03e b7b8 ac3e 8f2d ce3e
00000180: a7e2 e93e 1c96 2e3f 7692 a4be e803 84bd
00000190: 0ec4 a43e c964 7f3e c0ef 66bd bb7d fabe
000001a0: 67ab d4bb b8f4 94be aae5 7a3f 40c6 84be
000001b0: 1701 04bf fc2c 2c3e 8bc5 80bd 5ab6 b0bd
000001c0: f72d 35bf 2885 c03e 75a7 38bf dfc7 f9be
000001d0: aaaa 293f af28 333e 92cd 56be b3bb ec3e
000001e0: c5df 24bf 957f 0ebe 673e 1bbf 4739 0cbd
000001f0: 3117 99be 7815 633f 08e0 74be d958 8dbe
00000200: bc69 4bbe 9c36 17be 5443 063f 3ad2 a93e
00000210: 843f f13e 3ee6 12be 4da9 dc3e 083a 293e
00000220: a1f8 c03e 1278 423f 5f97 3c3d c668 8abe
00000230: f515 8bbe 7427 203f 4404 263e 593e 263f
00000240: 4c5d ff3d 72a7 113f f9e6 2c3f 04de ee3e
00000250: 4693 2e3f 728d 91be ce79 adbe ea9f 463e
00000260: 0211 de3e 0776 6c3f b138 0b3e a46e 23be
00000270: 7647 2a3f 3d41 e3be db72 d9bd 9147 e3be
00000280: 5b29 e3be b331 b2be 16cc 213f 3974 973e
00000290: 69b4 5b3e f206 13be 7bca 2a3e a6e2 e83e
000002a0: 6f58 1f3d 14d4 fd3e 62bf 313f 3d7b ed3e
000002b0: de0c 283f dc5e 04be 0d1a 2f3f 9ebd 8a3d
000002c0: 7b02 fb3d 9c4c 7b3d dfdb 683f 1a4c d63e
000002d0: 8cdc 24bf 6caa 03bd 96ef 673f 9325 e9be
000002e0: 8077 423e abc7 a13e 9989 a23e 4157 9f3e
000002f0: 5286 c03e 361c 193f a18f a83e 0f47 b13e
00000300: 8bff 05be f0db 5a3e 9700 633e 8fb9 633e
00000310: dbce be3b 864c 8f3e c47b 163c aa88 26be
00000320: 9a10 acbe b87d 053e 2985 04be 1135 b53e
00000330: 07af ff3e 0cda 613f c789 b1be 811b d23e
00000340: 98ab e2bd 33d3 38bf 432a 4f3f aea2 7e3e
00000350: 0b7c 953e eb0b eb3e 482e a53e 8197 22be
00000360: e853 8d3e fbce 043f c87d c7bc 6359 2e3f
00000370: f3db 38bf dc7b 643f 1a96 82be 1b15 643f
00000380: 6ab0 6b3f 2e97 463f 01a6 493d 7d8e 723e
00000390: 1617 0abf 9e2b 723d 4977 05be 77bb 9c3e
000003a0: 7ea6 22be 0bb2 abbc 0bf5 8abe eaa0 18be
000003b0: 9e3b 803e 145e a73e 8896 eb3e 20d7 ebbd
000003c0: 5a1c b7be 4bb9 1abf 78a6 fb3e d5bc 893e
000003d0: b713 24bf 958f abbe 12ea 0b3f acb2 263f
000003e0: 9eda 92be b014 afbd 7f65 8abe d516 0b3d
000003f0: 196e e9be e4a1 043f 2205 ce3e c518 8e3d

l1.bias f4 [8]
0.4651103 1.1312326 0.42977738 0.71747035 0.44065788 0.45568353 0.33289692 0.82032734
00000000: f022 ee3e 3bcc 903f c80b dc3e 23ac 373f
00000010: e99d e13e 5a4f e93e 7771 aa3e f900 523f

l2.weight f4 [8, 8]
0.90839255 0.65271735 0.186658 -0.31082585 1.2253546 -0.20412102 1.7000006 -0.25056702
1.134332 0.49730024 1.0016466 0.23151736 -0.59175426 -0.42204183 -0.17893706 -0.3011538
0.83670515 -0.33898214 0.4868008 -0.19785862 1.4286714 -0.45133045 1.3689606 -0.8716348
0.10139438 -0.0706376 -0.16684867 1.2673782 -0.1079551 -0.44495642 0.3032465 0.43491676
0.26512724 -0.9608284 0.4959236 0.886838 0.3936487 0.632247 0.5554663 -0.13288052
-0.3937053 1.6919601 -0.3630633 1.4770464 -0.4589707 0.20977668 -0.52666575 1.3615109
0.75616014 -1.1610991 1.0155481 0.6276178 -0.25474265 0.5894303 0.10204885 0.39923248
0.45220855 -0.17426544 0.23901631 -0.77591556 0.6522546 1.2975577 -0.009485747 1.6408495
00000000: 6a8c 683f 7c18 273f 4623 3f3e 9124 9fbe
00000010: 6bd8 9c3f 1a05 51be 9f99 d93f 524a 80be
00000020: ca31 913f 239e fe3e f535 803f e312 6d3e
00000030: 357d 17bf de15 d8be 473b 37be d530 9abe
00000040: 4f32 563f 118f adbe f43d f93e 739b 4abe
00000050: b4de b63f c914 e7be 1a3a af3f 7523 5fbf
00000060: dba7 cf3d 72aa 90bd 61da 2abe 7339 a23f
00000070: 9017 ddbd 54d1 e3be 2043 9b3e 69ad de3e
00000080: c2be 873e daf8 75bf b3e9 fd3e d107 633f
00000090: 538c c93e f0da 213f 0a33 0e3f d511 08be
000000a0: be93 c9be 2692 d83f 6fe3 b9be db0f bd3f
000000b0: 35fe eabe b3cf 563e 91d3 06bf fd45 ae3f
000000c0: b693 413f e59e 94bf 7bfd 813f 8fab 203f
000000d0: a16d 82be e7e4 163f fdfe d03d 3368 cc3e
000000e0: e187 e73e a472 32be b1c0 743e 67a2 46bf
000000f0: 28fa 263f 5f16 a63f 1b6a 1bbc 5b07 d23f

l2.bias f4 [8]
-0.25551364 -0.19704202 0.4051837 -0.10358385 -0.1710727 0.5004417 0.0886906 0.3432292
00000000: afd2 82be 62c5 49be 3d74 cf3e c523 d4bd
00000010: af2d 2fbe f21c 003f 6ba3 b53d bdbb af3e

l3.weight f4 [8, 8]
0.45516336 0.17473654 0.12174373 -0.035481315 -0.13271134 0.036436047 -1.185513 -2.3523998
0.5850581 0.24327564 0.96087617 -1.9931262 -1.444671 -0.57680416 -1.7133423 -0.0017641179
-1.8642157 -1.3857527 -0.5726673 1.2516698 -0.69693244 1.1755459 -1.1305574 -1.5858164
-1.2989097 -0.029580804 -0.33130038 -0.21060409 0.3052636 -0.71640426 0.569138 0.679757
-0.3359779 0.06377043 0.30096304 0.42675138 0.54796094 -0.9607212 0.38011423 -0.8786964
-0.22437543 0.66516167 -1.0847228 -0.7198259 -1.7139136 0.09454279 -0.2910146 -0.2516786
0.34848174 -2.1589484 0.3094748 -0.4210883 0.38578436 -1.6336684 0.0737036 0.38134766
-0.53504 -1.9759146 -0.48557615 -1.7216517 -0.92250276 0.52145267 -1.3027931 0.97643435
00000000: 2c0b e93e 23ee 323e c754 f93d db54 11bd
00000010: 7be5 07be f73d 153d e4be 97bf b88d 16c0
00000020: 5ec6 153f 401d 793e fbfb 753f c21e ffbf
00000030: fbea b8bf 70a9 13bf cd4e dbbf f939 e7ba
00000040: 9f9e eebf 5860 b1bf 539a 12bf b736 a03f
00000050: 2a6a 32bf 4a78 963f 1bb6 90bf 08fc cabf
00000060: ac42 a6bf 7153 f2bc 34a0 a9be 99a8 57be
00000070: 834b 9c3e 4566 37bf 07b3 113f 8e04 2e3f
00000080: 4c05 acbe 129a 823d d417 9a3e 287f da3e
00000090: 2b47 0c3f d3f1 75bf 559e c23e 3ff2 60bf
000000a0: acc2 65be 0948 2a3f 32d8 8abf 8346 38bf
000000b0: 8561 dbbf a69f c13d deff 94be 04dc 80be
000000c0: 336c b23e 362c 0ac0 7b73 9e3e e398 d7be
000000d0: 8785 c53e 0c1c d1bf eaf1 963d 0040 c33e
000000e0: 62f8 08bf c5ea fcbf 709d f8be 155f dcbf
000000f0: 2429 6cbf ec7d 053f edc1 a6bf 9af7 793f

l3.bias f4 [8]
-0.4372619 0.37428197 0.67566866 0.07472999 0.15026595 -0.27389812 -0.35352784 0.1625946
00000000: cbe0 dfbe e3a1 bf3e 9ff8 2c3f 090c 993d
00000010: 51df 193e 603c 8cbe 9a01 b5be 337f 263e
